checkpoints/baselines/tinycnn_blended.pt (torch, 580082 bytes, 12 tensors)

net.0.weight f4 [32, 4, 3, 3]
-0.10195958 -0.05502813 -0.11012566 0.1274176 -0.14841329 0.0837043 0.07409366 0.05801195
0.06345556 -0.025603253 -0.044162475 -0.055102587 0.12072992 0.06490761 -0.15695047 -0.13363941
-0.110353686 0.10384539 0.12624685 -0.015743999 -0.03782275 -0.01114143 0.11256866 -0.0044103297
-0.042788118 0.10054523 -0.06541217 0.011233546 0.025447417 -0.091203764 0.0005149479 0.10197452
0.017085277 -0.056441188 -0.04617394 0.08484296 -0.072758436 0.1126708 -0.03586953 -0.08403745
-0.11876598 0.12343106 0.023445414 0.0579567 -0.019011032 -0.09913542 0.13149765 -0.16362922
-0.15951979 -0.14102799 -0.030077845 0.075799264 -0.075204834 -0.01767152 0.15483865 0.0023022888
0.11041053 -0.15773411 0.106153116 0.005497024 0.1333316 -0.03574183 -0.051972732 0.062650174
-0.10036603 0.14434707 -0.015833251 0.047900878 -0.022807969 -0.12505043 0.11586893 0.13550836
0.036711875 -0.13233872 -0.045763608 0.08308552 -0.17000492 -0.12238198 -0.064931266 -0.03494452
0.11641356 0.055308137 0.14551014 0.100464046 0.016147124 -0.073794685 0.034367073 -0.008016797
0.021509243 -0.1429368 0.07857688 -0.0040885545 0.118727826 0.07466139 0.07861623 -0.01970703
-0.14344312 -0.061199486 -0.1661654 0.018109411 0.115901 -0.1577112 -0.018793134 -0.15289648
0.12894657 0.03354405 -0.0005820799 -0.09194292 -0.15496035 0.10427047 -0.16645756 0.031999398
0.022908658 -0.10472158 0.15997028 0.11913864 0.06675692 -0.053048514 -0.025232295 -0.044242274
-0.17064479 0.10237297 0.15147807 -0.10654605 0.021745173 -0.080510765 -0.13568056 0.09502147
-0.028626347 0.11928225 -0.014073628 -0.0037394399 -0.13601035 0.15091552 0.062337186 -0.051167004
0.009565739 0.06809814 -0.031765785 0.076733194 0.015329659 0.1131544 -0.14161488 -0.052565325
0.102061756 -0.03041767 0.08095568 -0.04088501 -0.11747554 0.12519477 0.0541484 -0.11521251
0.010509212 0.048786942 0.03903398 -0.0833572 -0.037111066 -0.081443876 0.06930886 -0.11536271
-0.07706429 -0.14174485 0.058812194 0.09364319 -0.037944335 0.06089169 0.14597563 -0.015860528
0.056498606 -0.09455022 0.011490902 0.096733384 0.046441626 0.13433982 -0.026655171 -0.014656268
-0.10972102 0.035693698 -0.056075335 -0.11682504 -0.107789636 0.13822876 0.1555672 0.15290172
0.10512598 -0.14603165 -0.1414014 0.15814362 -0.07190333 0.035491865 0.01285737 -0.12758544
-0.08908853 0.156287 0.03408607 -0.071347155 -0.08583598 0.07923905 -0.06168157 0.09724393
0.06364473 0.113101065 -0.09166235 0.14279014 0.12114433 0.080154166 -0.022924807 0.014545764
-0.11718277 -0.020802988 -0.12910873 0.03741844 0.058217064 -0.1412047 0.14078222 -0.020241432
-0.16492876 0.013470291 -0.117812134 0.14485316 0.091367885 -0.0075726383 -0.010415934 0.06689114
-0.030962106 -0.16058788 0.072218105 0.15280667 0.0838032 -0.0121795945 0.033542 -0.01678134
0.01742495 0.038074017 0.102412745 -0.04609669 0.054746035 0.08360751 -0.104062065 0.16774237
-0.13338844 0.0869601 -0.03899513 -0.16264088 0.13152894 0.15811291 -0.11105379 0.10220576
-0.116758384 0.048078347 0.08910593 -0.05324208 -0.13336498 -0.0016821763 -0.038766526 -0.08992371
00000000: 2fd0 d0bd 2d65 61bd 9089 e1bd c279 023e
00000010: a7f9 17be 296d ab3d 6bbe 973d f09d 6d3d
00000020: fdf4 813d eabd d1bc b6e3 34bd 40b3 61bd
00000030: 4041 f73d 48ee 843d a0b7 20be c5d8 08be
00000040: 1d01 e2bd e4ac d43d db46 013e 8ff9 80bc
00000050: 07ec 1abd 8b8a 36bc 668a e63d 8784 90bb
00000060: 9842 2fbd a8ea cd3d d1f6 85bd e80c 383c
00000070: 1a77 d03c 0ac9 babd 92fd 063a 04d8 d03d
00000080: 6cf6 8b3c e02e 67bd e320 3dbd 25c2 ad3d
00000090: 6002 95bd f3bf e63d eeeb 12bd d41b acbd
000000a0: 943b f3bd 6cc9 fc3d 9910 c03c 0164 6d3d
000000b0: 06bd 9bbc 8307 cbbd 52a7 063e 6b8e 27be
000000c0: 2859 23be a469 10be d065 f6bc a53c 9b3d
000000d0: fe04 9abd ddc3 90bc 068e 1e3e ffe1 163b
000000e0: ea1e e23d 0d85 21be ce66 d93d 6120 b43b
000000f0: 1488 083e 0666 12bd 5ce1 54bd bc4e 803d
00000100: b58c cdbd b8cf 133e bcb4 81bc b633 443d
00000110: c7d7 babc 380d 00be b14c ed3d b4c2 0a3e
00000120: 315f 163d cd83 07be 9f72 3bbd be28 aa3d
00000130: c515 2ebe 67a3 fabd affa 84bd fc21 0fbd
00000140: 3c6a ee3d c98a 623d 9c00 153e 18c0 cd3d
00000150: f946 843c ab21 97bd 7dc4 0c3d e258 03bc
00000160: 2734 b03c 065e 12be eaec a03d 48f9 85bb
00000170: 9327 f33d 12e8 983d 8c01 a13d a370 a1bc
00000180: c1e2 12be 50ac 7abd 4327 2abe 305a 943c
00000190: 815d ed3d 0b7f 21be 0ff4 99bc e590 1cbe
000001a0: 920a 043e 7c65 093d b996 18ba 924c bcbd
000001b0: edad 1ebe c28b d53d da73 2abe cd11 033d
000001c0: f0aa bb3c 4578 d6bd 40cf 233e f6fe f33d
000001d0: dab7 883d 6649 59bd f5b3 cebc 6337 35bd
000001e0: 82bd 2ebe eba8 d13d 111d 1b3e d134 dabd
000001f0: ef22 b23c d4e2 a4bd d8ef 0abe 9e9a c23d
00000200: cd81 eabc 414a f43d 1395 66bc 6411 75bb
00000210: 4c46 0bbe 9989 1a3e 4755 7f3d 7e94 51bd
00000220: 9eb9 1c3c 0a77 8b3d d71c 02bd 4b26 9d3d
00000230: 4029 7b3c 7ebd e73d 7e03 11be bd4e 57bd
00000240: c105 d13d 7a2e f9bc 17cc a53d 0a77 27bd
00000250: 0497 f0bd 0f33 003e b6ca 5d3d 89f4 ebbd
00000260: d42e 2c3c d1d4 473d 18e2 1f3d 2eb7 aabd
00000270: c601 18bd 0ccc a6bd cef1 8d3d 4943 ecbd
00000280: e2d3 9dbd 9025 11be 0ee5 703d 00c8 bf3d
00000290: 856b 1bbd 9169 793d a37a 153e f0ed 81bc
000002a0: 156b 673d 8ca3 c1bd 5644 3c3c 271c c63d
000002b0: 9339 3e3d 6190 093e f25b dabc d820 70bc
000002c0: 6ab5 e0bd 8e33 123d 40af 65bd f741 efbd
000002d0: d0c0 dcbd d78b 0d3e 024d 1f3e 4592 1c3e
000002e0: 4a4c d73d 5289 15be 87cb 10be 67f0 213e
000002f0: 0e42 93bd eb5f 113d b8a7 523c c2a5 02be
00000300: 0c74 b6bd b309 203e d69d 0b3d 751e 92bd
00000310: c6ca afbd 1548 a23d d0a5 7cbd d327 c73d
00000320: 2b58 823d 88a1 e73d 78b9 bbbd 9437 123e
00000330: 851a f83d de27 a43d cecc bbbc 5b51 6e3c
00000340: 85fd efbd 076b aabc 1435 04be 1444 193d
00000350: 0475 6e3d f797 10be 3729 103e 5cd1 a5bc
00000360: 16e3 28be 7fb2 5c3c 7d47 f1bd 6354 143e
00000370: 161f bb3d e523 f8bb 98a7 2abc 39fe 883d
00000380: 3ea4 fdbc 2671 24be 16e7 933d 5a79 1c3e
00000390: 03a1 ab3d ec8c 47bc 5663 093d 0579 89bc
000003a0: c5be 8e3c 80f3 1b3d c6bd d13d e2cf 3cbd
000003b0: 613d 603d 6a3a ab3d 7e1e d5bd a8c4 2b3e
000003c0: fb96 08be 2318 b23d 5cb9 1fbd 558b 26be
000003d0: 86af 063e 5ae8 213e 2b70 e3bd 4151 d13d
000003e0: 051f efbd cded 443d 2b7d b63d 5e14 5abd
000003f0: d490 08be 787c dcba a6c9 1ebd ec29 b8bd

net.0.bias f4 [32]
0.011540655 0.060707882 0.11004268 0.010337862 0.14411764 -0.121878915 0.07831155 0.04858631
-0.09780861 -0.108268976 -0.08018436 0.019258339 -0.024092864 0.05471274 -0.0751132 -0.00018965927
-0.12057267 0.11782782 0.1725674 0.057646047 0.12517549 0.03655979 -0.14635442 0.15169717
-0.14840963 0.0568407 -0.13746205 -0.15766534 -0.14547364 -0.0313989 -0.09771087 0.09904027
00000000: 0415 3d3c d4a8 783d 0e5e e13d 2360 293c
00000010: 9393 133e a79b f9bd ce61 a03d 7002 473d
00000020: e14f c8bd 20bc ddbd b337 a4bd aac3 9d3c
00000030: 665e c5bc 771a 603d f3d4 99bd 46df 46b9
00000040: ceee f6bd b64f f13d 82b5 303e 431e 6c3d
00000050: 012e 003e b8bf 153d efdd 15be 8156 1b3e
00000060: b2f8 17be cbd1 683d dac2 0cbe 0673 21be
00000070: 0bf7 14be 229c 00bd a31c c8bd a0d5 ca3d

net.2.weight f4 [32, 32, 3, 3]
-0.0069349017 -0.03405174 0.0387976 -0.06711895 -0.03833326 -0.029447304 0.027265789 -0.05322719
-0.0043806294 0.049817152 0.033883538 -0.023208492 -0.022059428 -0.021187425 -0.04941183 -0.035613384
-0.018906554 0.015686067 -0.08069023 0.009869827 0.015822887 -0.031375974 0.024572846 0.026774425
-0.026574807 0.013906762 -0.067562655 -0.02138802 0.05024629 0.06312846 0.020571258 -0.057604343
-0.035768736 0.043051127 0.009236795 -0.057499163 -0.027588615 0.014850447 0.04838511 0.047353003
0.03362799 -0.051015664 0.018428655 -0.040029887 -0.035544746 -0.008588644 0.06146204 -0.0033583012
0.05594685 0.06005214 0.032404236 0.053923525 0.047945626 0.02959898 0.032020245 0.04434999
-0.042139422 -0.033997808 -0.01435898 0.050835565 0.06550206 -0.02970463 -0.030367011 0.025471956
0.014081093 -0.054977883 -0.05561447 -0.010136972 0.005786676 -0.023997579 -0.07291824 -0.039515026
-0.022262232 0.009139378 -0.0038287514 -0.046750117 0.032202527 0.02378947 -0.015037869 0.02411321
0.020073999 -0.06954159 -0.07682971 -0.013183246 0.022970859 -0.061054718 0.019271407 -0.0034428441
-0.007881987 -0.016038293 0.00077518227 0.006138755 -0.019407846 -0.059168167 0.016738968 -0.021856533
-0.07434862 0.027716441 -0.036867697 -0.02847005 -0.062603064 0.00925051 -0.09424432 0.010787682
-0.099650964 -0.079278424 -0.053444646 -0.07316443 0.00028836462 -0.021690965 0.022770025 0.0062175915
-0.02717176 -0.0767229 -0.020319352 -0.00267142 -0.045819532 -0.02840809 0.012248735 -0.029437408
0.021526868 0.058826964 0.018268906 -0.04076241 0.010137589 -0.019855876 -0.06510713 -0.0030445333
-0.01684865 0.013478757 -0.017136103 -0.032291416 0.0033380187 -0.030219898 -0.055361144 -0.046856444
-0.05481938 -0.010830414 -0.03166551 -0.038523804 0.02266102 -0.00082216726 -0.044489827 -0.06329972
-0.039404172 0.037520204 0.03661916 -0.035823427 -0.040813837 0.0742383 0.052537348 -0.03550021
0.0030070886 -0.0052333586 -0.09127624 0.021115454 -0.06038751 -0.05777916 -0.08975386 -0.06476331
-0.009082296 -0.06762979 -0.015679594 0.0028476396 -0.03702197 -0.06840974 -0.05288588 -0.019968592
-0.06152903 -0.085720606 0.006827953 -0.041959073 0.03611219 -0.039503 -0.019299641 -0.030704455
-0.056295805 -0.050690304 0.03376765 0.028401664 -0.029328778 -0.0043785335 0.04147863 0.0076547107
0.053318165 0.007872926 0.03747233 -0.014023501 0.06584487 0.04239553 0.04318439 0.06366253
0.065115005 0.008208131 -0.0036390282 -0.026407138 -0.0109717 -0.025622535 0.043397356 0.036188304
-0.022348097 0.01597295 0.0056535252 0.06157619 0.03800351 0.05709209 0.045873288 -0.015465126
0.029645067 -0.007692117 0.051362365 -0.0018299172 0.040329967 -0.04194626 0.02954237 0.060891174
-0.04473468 0.033433784 -0.029046025 -0.06413059 -0.017874623 -0.047505338 0.013978582 0.032967754
0.025824368 -0.01466509 0.043360848 0.0141247725 -0.027522054 -0.018871779 -0.05088165 -0.04679914
0.016036214 0.053548463 0.018726617 -0.0023360776 -0.07700758 -0.053897757 -0.057938997 -0.04619849
-0.07896439 -0.07177815 -0.008787953 -0.023734597 -0.03540964 -0.024759665 0.013594041 0.008427333
-0.066708885 0.04342339 -0.034452703 -0.027308237 0.007248242 0.043149352 0.0125680445 0.054909665
00000000: 2c3e e3bb d679 0bbd 3bea 1e3d a975 89bd
00000010: 5603 1dbd 793b f1bc 815c df3c c104 5abd
00000020: 628b 8fbb 120d 4c3d 77c9 0a3d bc1f bebc
00000030: f9b5 b4bc 4091 adbc 0f64 4abd 57df 11bd
00000040: ebe1 9abc 1180 803c eb40 a5bd 0eb5 213c
00000050: 009f 813c 1884 00bd fe4c c93c 0a56 db3c
00000060: 69b3 d9bc 30d9 633c 4a5e 8abd ee35 afbc
00000070: 0ecf 4d3d 7e49 813d 0e85 a83c 88f2 6bbd
00000080: 3d82 12bd 6156 303d ed55 173c 3e84 6bbd
00000090: 8501 e2bc 4a4f 733c 772f 463d 39f5 413d
000000a0: 81bd 093d cdf5 50bd b1f7 963c 61f6 23bd
000000b0: 5e97 11bd 62b7 0cbc 9fbf 7b3d f216 5cbb
000000c0: 8628 653d 3cf9 753d 4eba 043d eade 5c3d
000000d0: a262 443d 8f79 f23c a927 033d 56a8 353d
000000e0: 639a 2cbd 4941 0bbd ed41 6bbc f438 503d
000000f0: f225 863d 2057 f3bc 3dc4 f8bc 90aa d03c
00000100: 62b4 663c 7d30 61bd 00cc 63bd 8b15 26bc
00000110: 289e bd3b 9296 c4bc 2956 95bd 82da 21bd
00000120: 495f b6bc 54bd 153c caeb 7abb 0d7d 3fbd
00000130: cce6 033d 22e2 c23c 6561 76bc 1189 c53c
00000140: 3a72 a43c d26b 8ebd e558 9dbd 8bfe 57bc
00000150: 622d bc3c 8314 7abd 12df 9d3c 57a1 61bb
00000160: 7323 01bc bd62 83bc 9a35 4b3a 9c27 c93b
00000170: 34fd 9ebc 525a 72bd 2920 893c 790c b3bc
00000180: 1744 98bd 970d e33c 9502 17bd 063a e9bc
00000190: 0936 80bd 738f 173c 2b03 c1bd d1be 303c
000001a0: ce15 ccbd ba5c a2bd c6e8 5abd 3cd7 95bd
000001b0: a52f 9739 40b1 b1bc 3488 ba3c f0bc cb3b
000001c0: 5097 debc e520 9dbd c574 a6bc fe12 2fbb
000001d0: 43ad 3bbd 15b8 e8bc ebae 483c b826 f1bc
000001e0: 1d59 b03c 8bf4 703d aca8 953c 7cf6 26bd
000001f0: 2118 263c caa8 a2bc e356 85bd cb86 47bb
00000200: 2e06 8abc 01d6 5c3c 0361 8cbc 0144 04bd
00000210: a9c2 5a3b b88f f7bc 5ec2 62bd 8bec 3fbd
00000220: 498a 60bd 0c72 31bc b2b3 01bd 23cb 1dbd
00000230: 9aa3 b93c b686 57ba f73a 36bd 49a3 81bd
00000240: 4566 21bd c9ae 193d f9fd 153d 96bb 12bd
00000250: 692c 27bd 400a 983d 6731 573d ab68 11bd
00000260: 9312 453b 987c abbb 0aef babd 51fa ac3c
00000270: e558 77bd d7a9 6cbd dfd0 b7bd a0a2 84bd
00000280: e9cd 14bc 7d81 8abd 7e72 80bc 779f 3a3b
00000290: 59a4 17bd 681a 8cbd dd9e 58bd 2c95 a3bc
000002a0: dd05 7cbd 498e afbd 05bd df3b 47dd 2bbd
000002b0: 60ea 133d e6cd 21bd 481a 9ebc e987 fbbc
000002c0: 6e96 66bd a3a0 4fbd f34f 0a3d 9baa e83c
000002d0: e842 f0bc cd79 8fbb 7fe5 293d 5ed4 fa3b
000002e0: 2664 5a3d 72fd 003c 967c 193d d4c2 65bc
000002f0: add9 863d efa6 2d3d 1de2 303d 8061 823d
00000300: 045b 853d 667b 063c c37c 6ebb c853 d8bc
00000310: a5c2 33bc 5ae6 d1bc 6dc1 313d 303a 143d
00000320: 5b13 b7bc b4d9 823c 3541 b93b 5137 7c3d
00000330: 92a9 1b3d 65d9 693d a1e5 3b3d 7161 7dbc
00000340: 36da f23c 270e fcbb 5861 523d d5d9 efba
00000350: 0931 253d d7cf 2bbd d702 f23c 0669 793d
00000360: b63b 37bd ddf1 083d eef1 edbc e656 83bd
00000370: cd6d 92bc f594 42bd 6c06 653c 3209 073d
00000380: a08d d33c d845 70bc 259b 313d 976b 673c
00000390: ee75 e1bc fd98 9abc 4769 50bd 74b0 3fbd
000003a0: 615e 833c a255 5b3d 9068 993c e118 19bb
000003b0: 26b6 9dbd e5c3 5cbd 7151 6dbd a13a 3dbd
000003c0: 15b8 a1bd 6c00 93bd 59fb 0fbc 0f6f c2bc
000003d0: b309 11bd c8d4 cabc 8ab9 5e3c cc12 0a3c
000003e0: ab9e 88bd b9dc 313d 471e 0dbd 86b5 dfbc
000003f0: a982 ed3b 60bd 303d 33ea 4d3c f5e8 603d

net.2.bias f4 [32]
-0.016940152 0.0649287 0.0010018025 -0.01640487 0.004868588 -0.0014206005 -0.039708138 -0.048503835
0.06279511 0.014218332 0.0314154 -0.012111103 0.06680662 0.0042610997 0.0035414489 -0.0028566266
0.069850385 -0.03945662 0.019606624 0.072588705 0.017238116 0.02522623 -0.002173238 0.043790124
0.071142554 -0.00072909595 -0.0065076733 -0.005480077 0.048785582 0.00809178 0.022586748 0.015433605
00000000: 13c6 8abc 57f9 843d ea4e 833a 8263 86bc
00000010: ad88 9f3b 7133 baba 00a5 22bd f5ab 46bd
00000020: b99a 803d 02f4 683c 6fad 003d a66d 46bc
00000030: e9d1 883d b2a0 8b3b a717 683b 3e36 3bbb
00000040: b80d 8f3d 449d 21bd 129e a03c 63a9 943d
00000050: f336 8d3c 3da7 ce3c e26c 0ebb 465d 333d
00000060: 30b3 913d cd20 3fba 523e d5bb 3892 b3bb
00000070: 64d3 473d 6393 043c d807 b93c 3bdd 7c3c

net.5.weight f4 [64, 32, 3, 3]
0.02992875 -0.012887423 -0.042922005 0.011952341 -0.033029854 -0.06274957 0.0450494 -0.0060822754
-0.025121154 0.04277098 0.008132779 0.06056663 0.025927197 0.008328421 -0.016148055 0.012696094
-0.0006734535 -0.0089858845 -0.014008319 0.01955543 0.055795018 0.029316168 -0.020602599 -0.013422374
-0.004786316 -0.04340557 -0.009817324 0.020027263 -0.030080212 0.047283098 0.04301128 0.042525068
0.024310306 -0.014227852 -0.020480955 0.04951399 0.005272925 -0.008129144 0.055336323 -0.0036881047
0.04833673 -0.033694215 0.027257558 -0.05238896 -0.0015053737 0.058983997 0.038283236 0.07225587
0.01860723 0.062450618 0.06475552 0.07165118 0.0030190488 0.04450943 -0.039952666 -0.011867317
0.005850882 -0.048299614 0.054556824 -0.05337519 -0.048685335 -0.006391523 0.03668497 0.03986751
0.0405314 0.034784485 -0.04730176 0.045846052 -0.030814018 0.028404944 -0.008861452 -0.016092684
-0.007458408 -0.02026894 0.050742697 0.016549744 0.017890893 0.036489386 0.016441444 -0.040603563
0.03829458 -0.00012665796 0.03686312 0.022673639 0.0063980236 0.029145557 0.033224236 0.03210534
0.04249136 -0.04972538 0.0029102573 0.04740411 0.034104053 0.06997405 -0.014987005 0.0037464136
0.05285806 -0.023215806 0.07482274 -0.049662553 0.038136814 -0.032478347 -0.022958484 0.040401474
-0.04479283 0.038551696 0.055115744 -0.013055415 0.009534492 0.06817764 0.028769322 -0.022924352
0.012937252 -0.004047837 0.002838546 0.036267743 -0.010443712 0.040200215 -0.0034093289 0.08501608
0.016895173 0.06573732 0.020163678 0.093937375 0.026764272 0.06610798 0.020514552 0.06022979
0.022857515 -0.018098306 0.036846735 0.021868704 -0.003286822 0.084441796 -0.014567658 -0.025778003
0.0114598535 -0.025953373 0.045333263 0.027999463 -0.003584425 0.017776188 0.0271161 0.017341802
0.03373942 -0.014205787 0.08443831 0.011680825 -0.025894327 0.02605875 0.06641067 0.07084275
0.026136257 0.037934657 -0.052426226 0.037842687 -0.051563825 -0.03803532 0.022113156 -0.016228309
0.0295973 -0.019395152 -0.0010060509 0.002987682 0.014404258 -0.018678786 -0.010862148 -0.0542208
0.031143297 -0.0018375086 0.003008177 0.04064354 -0.006508495 0.06641688 0.063393384 0.0033520882
0.027129838 0.039295193 0.020792594 0.028398538 -0.030529154 0.06174298 -0.02216661 -0.03833797
0.0040747137 0.01912694 -0.014546596 0.02511014 0.012193149 -0.003755171 -0.053431753 -0.0149136875
-0.042887792 0.031791598 -0.028519122 -0.01686857 0.053451817 -0.038895886 0.026243469 -0.055982914
0.0132109 -0.039977774 0.03353631 -0.0033021858 -0.056272157 0.051091038 0.011868072 -0.04537014
-0.02539897 0.057237376 8.1386344e-05 -0.02271799 -0.017578986 0.019867232 0.017600862 -0.049567893
0.06901263 -0.013127281 0.07209122 0.08556746 0.04643646 0.07991288 0.030387066 -0.009176913
-0.017788652 -0.037408404 0.059682716 0.04290787 -0.04354032 0.04633852 0.06328575 -0.026430175
-0.005591654 0.0012024086 0.042524524 -0.018193446 -0.011407919 -0.016678058 -0.008105939 -0.021698534
0.011032315 -0.029004345 -0.0036784208 0.0473002 -0.028943662 -0.010997225 0.037822057 0.032694425
-0.04909862 0.030717349 0.014233649 0.03837046 0.005422079 0.009407799 0.0316423 -0.03395404
00000000: 232d f53c c525 53bc fcce 2fbd c0d3 433c
00000010: 504a 07bd d982 80bd b885 383d d34d c7bb
00000020: e1ca cdbc a030 2f3d 593f 053c b714 783d
00000030: 4665 d43c ee73 083c ed48 84bc 4703 503c
00000040: b38a 30ba 8839 13bc 2683 65bc b632 a03c
00000050: 5189 643d 7628 f03c c8c6 a8bc 84e9 5bbc
00000060: 87d6 9cbb 0aca 31bd d7d8 20bc 3710 a43c
00000070: c76a f6bc ecab 413d 992c 303d c42e 2e3d
00000080: 6826 c73c f01b 69bc adc7 a7bc 2ecf 4a3d
00000090: 80c8 ac3b 1a30 05bc 57a8 623d 21b4 71bb
000000a0: bcfc 453d f202 0abd 3e4b df3c ce95 56bd
000000b0: f64f c5ba 3499 713d e2ce 1c3d e3fa 933d
000000c0: 316e 983c 38cc 7f3d 8b9e 843d dbbd 923d
000000d0: 3cdb 453b 854f 363d 68a5 23bd 236f 42bc
000000e0: c1b8 bf3b d1d5 45bd fa76 5f3d f19f 5abd
000000f0: 466a 47bd fb6f d1bb fb42 163d 1d4c 233d
00000100: 4104 263d 2d7a 0e3d 7ebf 41bd 12c9 3b3d
00000110: ae6d fcbc 7cb1 e83c a02f 11bc ced4 83bc
00000120: a965 f4bb 0c0b a6bc 93d7 4f3d 5493 873c
00000130: ec8f 923c e575 153d 35b0 863c ec4f 26bd
00000140: c7da 1c3d 7dcf 04b9 c8fd 163d 11be b93c
00000150: 83a6 d13b aac2 ee3c 2316 083d e480 033d
00000160: 6c0b 2e3d d7ac 4bbd 04ba 3e3b d02a 423d
00000170: b1b0 0b3d 8e4e 8f3d 0e8c 75bc 6486 753b
00000180: b181 583d 132f bebc aa3c 993d f66a 4bbd
00000190: 5935 1c3d 0408 05bd 6e13 bcbc 047c 253d
000001a0: b078 37bd 62e8 1d3d 0cc1 613d 61e6 55bc
000001b0: 8f36 1c3c b8a0 8b3d a4ad eb3c dacb bbbc
000001c0: c5f6 533c b8a3 84bb e606 3a3b 7c8d 143d
000001d0: 1a1c 2bbc fba8 243d 0c6f 5fbb e91c ae3d
000001e0: bf67 8a3c 4aa1 863d 4c2e a53c 3d62 c03d
000001f0: bf40 db3c 9f63 873d 220e a83c 83b3 763d
00000200: af3f bb3c e642 94bc 9aec 163d ff25 b33c
00000210: b967 57bb d2ef ac3d 30ad 6ebc 642c d3bc
00000220: 1cc2 3b3c 2b9c d4bc 5faf 393d 215f e53c
00000230: ace8 6abb 5e9f 913c 9522 de3c 6510 8e3c
00000240: 5932 0a3d 64bf 68bc feed ac3d ee60 3f3c
00000250: 5720 d4bc 2979 d53c 5102 883d 0116 913d
00000260: b41b d63c 5f61 1b3d e2bc 56bd ef00 1b3d
00000270: 9734 53bd ecca 1bbd a626 b53c 3bf1 84bc
00000280: 0976 f23c 95e2 9ebc 77dd 83ba fccc 433b
00000290: d6ff 6b3c 4104 99bc 27f7 31bc a116 5ebd
000002a0: 3a20 ff3c 8fd8 f0ba d624 453b d779 263d
000002b0: 3745 d5bb 9305 883d 64d4 813d b5ae 5b3b
000002c0: 653f de3c fff3 203d 3b55 aa3c 0da4 e83c
000002d0: 4718 fabc 35e6 7c3d c096 b5bc 4608 1dbd
000002e0: 2d85 853b 1ab0 9c3c d954 6ebc c8b3 cd3c
000002f0: c6c5 473c 5119 76bb 41db 5abd 8a58 74bc
00000300: 1cab 2fbd e837 023d efa0 e9bc f52f 8abc
00000310: 4bf0 5a3d 4b51 1fbd 8bfc d63c 574e 65bd
00000320: 8872 583c bcbf 23bd 5f5d 093d 7c69 58bb
00000330: a27d 66bd d644 513d 4d72 423c 0ad6 39bd
00000340: 8011 d0bc bd71 6a3d f6ad aa38 141b babc
00000350: ce01 90bc 9bc0 a23c af2f 903c b407 4bbd
00000360: 7e56 8d3d cf13 57bc 90a4 933d fe3d af3d
00000370: 2834 3e3d 5da9 a33d 4cee f83c c35a 16bc
00000380: 82b9 91bc 8e39 19bd dd75 743d 2ac0 2f3d
00000390: 5657 32bd 76cd 3d3d f69b 813d 1884 d8bc
000003a0: 323a b7bb 239a 9d3a 322e 2e3d 6c0a 95bc
000003b0: 48e8 3abc 6ca0 88bc c6ce 04bc 20c1 b1bc
000003c0: e2c0 343c 859a edbc a911 71bb dbbd 413d
000003d0: 421b edbc b42d 34bc 4deb 1a3d 97ea 053d
000003e0: a21b 49bd f3a2 fb3c 4034 693c 582a 1d3d
000003f0: b2ab b13b 2b23 1a3c 5b9b 013d 6413 0bbd

net.5.bias f4 [64]
0.05824948 0.07198566 -0.041757904 -0.01029727 0.054974876 0.05452942 -0.04255471 0.048408285
0.02587981 -0.007480498 -0.044175237 0.04296835 -0.034995075 0.023831094 -0.014099232 -0.039958272
0.041532956 0.04055646 0.04128312 -0.04572702 0.0439224 -0.024305405 -0.014019139 -0.032723878
0.022768136 0.041642286 0.00043231944 -0.049248703 -0.054341804 -0.03671703 0.06997254 0.029098468
-0.046223316 -0.053847857 -0.02881878 -0.057235807 0.058398046 0.05245636 -0.026421672 -0.01585155
0.06613348 0.061716225 0.049701232 0.024924194 0.0026005749 0.06723186 -0.013020412 -0.015532129
-0.02059765 0.039264627 -0.032151494 -0.028522745 0.046970867 -0.012272299 0.011237338 0.0266043
-0.019977825 -0.044685334 0.040661637 -0.04965303 0.049842026 0.00010695544 0.012248635 0.058288284
00000000: 0297 6e3d 386d 933d 560a 2bbd e1b5 28bc
00000010: 562d 613d 3e5a 5f3d d94d 2ebd c447 463d
00000020: e501 d43c f71e f5bb 18f1 34bd 95ff 2f3d
00000030: ff56 0fbd 6d39 c33c 7700 67bc 49ab 23bd
00000040: 761e 2a3d 881e 263d 7d18 293d 414c 3bbd
00000050: f9e7 333d 211c c7bc 88b0 65bc 7909 06bd
00000060: 3e84 ba3c 1a91 2a3d efa8 e239 02b9 49bd
00000070: 8395 5ebd 9964 16bd c34d 8f3d e95f ee3c
00000080: a954 3dbd 928f 5cbd 5d15 ecbc 1870 6abd
00000090: ca32 6f3d 7bdc 563d 4372 d8bc 1cdb 81bc
000000a0: fd70 873d 27ca 7c3d 8593 4b3d d32d cc3c
000000b0: 686e 2a3b dbb0 893d 9153 55bc 797a 7ebc
000000c0: 67bc a8bc f2d3 203d 49b1 03bd 88a8 e9bc
000000d0: 8664 403d c111 49bc d01c 383c 43f1 d93c
000000e0: 89a8 a3bc f807 37bd d18c 263d fa60 4bbd
000000f0: 2727 4c3d 444d e038 80ae 483c b2bf 6e3d

net.7.weight f4 [64, 64, 3, 3]
-0.011800323 -0.03641102 -0.024279777 0.013941057 0.013217553 -0.0375624 0.030895518 -0.04267658
0.034299187 0.008868348 -0.03243113 -0.0046254313 0.0073557585 0.027599657 0.0014470103 0.0077777663
-0.023831263 -0.037430428 -0.0055068554 0.032332387 0.041505717 0.026107278 0.008647314 0.04553484
0.03239811 -0.009675703 -0.0033491359 -0.008646716 -0.023135586 -0.02699485 -0.011381371 0.041908287
-0.01792351 -0.0293614 0.013525075 -0.033388373 -0.009467358 -0.0020443723 -0.018098652 -0.011323531
0.00514644 0.045096915 0.03405818 -0.005568143 0.0062465277 -0.023071462 0.03402155 -0.036612358
-0.024445117 0.0033586463 -0.036353014 -0.00612818 -0.01997193 -0.006372246 0.0019312097 0.0014789646
0.035720777 0.0008881708 -0.0136008775 0.02319434 -0.0036112801 0.02517051 0.022421304 0.034864824
-0.022078 0.027672801 -0.0012043214 0.01705943 -0.011206055 -0.049229737 -0.023577021 -0.025729699
-0.04311818 -0.021098608 0.020684106 -0.019203356 -0.035596266 -0.03357053 -0.021401798 -0.020527253
0.0057204403 -0.035034914 0.02070053 -0.02317931 -0.04962781 -0.0050980095 0.019787129 0.028317356
0.00037716635 -0.029511748 -0.045546405 -0.042238135 0.018209599 -0.045055576 -0.020827387 0.025286838
-0.019829186 -0.05324728 0.017073894 -0.055914216 -0.021283874 -0.027551012 -0.0029966687 -0.03300013
-0.01982504 -0.014130445 -0.018801665 -0.034091163 -0.0036400226 -0.0023490887 0.015874226 0.0077506346
0.03353455 -0.010550608 -0.040335946 -0.029532194 0.025273062 0.0424215 -6.9663605e-05 0.0013529604
0.0059138266 -0.031833265 0.013094267 0.010150231 0.01990515 0.010224701 0.023192478 -0.030239444
-0.043135785 -0.029937929 -0.015754635 0.00069113745 -0.0095406845 -0.046844527 -0.009054549 -0.028360346
-0.027790401 0.03824128 0.019266598 0.04748616 -0.007876375 -0.00068220077 -0.00042675692 -0.03367602
-0.018357025 0.046202876 -0.021794826 0.028206682 0.047372986 -0.011564702 0.018484887 -0.020631963
-0.03353359 0.031122563 0.019564157 0.010008962 -0.035491902 -0.00552618 -0.016202481 0.0069938
-0.019769086 -0.012124128 0.023855243 -0.023320409 -0.015101353 -0.016207742 -0.008151528 0.023611506
-0.034430604 -0.036315963 -0.009847166 0.002049392 0.012974056 -0.0048633316 -0.006158125 -0.006258477
0.012551102 -0.0072531844 -0.0012659817 -0.010449849 -0.013620203 0.034815103 0.0053995596 -0.013634999
0.04216659 0.017553458 -0.01889912 0.025037188 0.010019754 -0.027947009 0.013676249 0.009804821
-0.039156687 0.021425266 -0.006052384 0.028241685 0.027905507 0.02186598 0.012850485 -0.0051614223
0.05248038 0.01190753 0.030482955 0.044736546 -0.005249079 0.0036519405 -0.005905288 0.022177437
0.03938579 0.044414636 0.017505646 0.019067673 -0.03744904 0.033546124 -0.041596517 -0.036018394
-0.018290631 -0.022413064 0.03649259 0.051690225 0.010774371 0.04341816 0.013039246 0.03462063
-0.022845887 0.013309233 -0.016319184 0.048971213 -0.010672189 0.039182544 0.04099358 0.0016098125
0.012991857 -0.03710522 -0.018705482 -0.0020192175 0.012272947 0.03534282 0.016299862 0.045389365
-0.04026231 0.005524636 -0.007892758 -0.02471807 0.013469172 0.021495314 -0.034390815 -0.006274699
-0.0058062444 -0.04446561 0.0016545899 -0.00884409 0.03869633 -0.023345927 0.024115786 -0.03648248
00000000: 2456 41bc b923 15bd 62e6 c6bc 0869 643c
00000010: 6f8e 583c 08db 19bd 9918 fd3c a3cd 2ebd
00000020: 4e7d 0c3d 8c4c 113c 81d6 04bd ee90 97bb
00000030: 9308 f13b ad18 e23c 9ca9 bd3a a2dc fe3b
00000040: c839 c3bc a650 19bd da72 b4bb f76e 043d
00000050: e601 2a3d eede d53c 77ad 0d3c be82 3a3d
00000060: e1b3 043d d786 1ebc 2d7d 5bbb f5aa 0dbc
00000070: d786 bdbc 4e24 ddbc ee78 3abc 06a8 2b3d
00000080: 53d4 92bc 5287 f0bc 4798 5d3c 3fc2 08bd
00000090: fa1c 1bbc e0fa 05bb a043 94bc 5586 39bc
000000a0: 78a3 a83b 8bb7 383d 9780 0b3d f874 b6bb
000000b0: acaf cc3b 5d00 bdbc 2e5a 0b3d d7f6 15bd
000000c0: 2041 c8bc bc1c 5c3b e6e6 14bd e6ce c8bb
000000d0: 2c9c a3bc 46ce d0bb a520 fd3a d1d9 c13a
000000e0: f34f 123d 22d4 683a 37d6 5ebc 0e02 be3c
000000f0: 3aab 6cbb 6332 ce3c e2ac b73c 6bce 0e3d
00000100: ecdc b4bc 12b2 e23c 52da 9dba 38c0 8b3c
00000110: 9a99 37bc 1fa5 49bd 9924 c1bc 17c7 d2bc
00000120: b09c 30bd fdd6 acbc b771 a93c 5b50 9dbc
00000130: 64cd 11bd 4181 09bd d352 afbc c528 a8bc
00000140: 8872 bb3b c580 0fbd 2894 a93c 89e2 bdbc
00000150: 8846 4bbd 340d a7bb 9e18 a23c cdf9 e73c
00000160: 69be c539 9fc2 f1bc de8e 3abd e501 2dbd
00000170: 4c2c 953c 328c 38bd 329e aabc 5826 cf3c
00000180: d170 a2bc d219 5abd 8dde 8b3c 4e06 65bd
00000190: 855b aebc a9b2 e1bc c263 44bb 252b 07bd
000001a0: 1f68 a2bc 6283 67bc f305 9abc 2da3 0bbd
000001b0: 728d 6ebb 2bf3 19bb aa0a 823c 09f9 fd3b
000001c0: 865b 093d 75dc 2cbc 4e37 25bd 80ed f1bc
000001d0: 7409 cf3c 2bc2 2d3d 5d18 92b8 d155 b13a
000001e0: c6c8 c13b 9963 02bd 5689 563c 284d 263c
000001f0: 2010 a33c 8185 273c 27fe bd3c b6b8 f7bc
00000200: 26af 30bd 6340 f5bc dd0f 81bc 732d 353a
00000210: 8850 1cbc 0ce0 3fbd 8859 14bc f553 e8bc
00000220: b2a8 e3bc e3a2 1c3d fcd4 9d3c d980 423d
00000230: e90b 01bc b8d5 32ba 58be dfb9 deef 09bd
00000240: 7961 96bc 3a3f 3d3d 108b b2bc b311 e73c
00000250: 2d0a 423d e079 3dbc 9e6d 973c 5d04 a9bc
00000260: 855a 09bd bff4 fe3c 0345 a03c a1fc 233c
00000270: f55f 11bd f514 b5bb 11bb 84bc 3f2c e53b
00000280: c7f2 a1bc 47a4 46bc 126c c33c 710a bfbc
00000290: aa6b 77bc 19c6 84bc fd8d 05bc eb6c c13c
000002a0: 1b07 0dbd 0cc0 14bd 0256 21bc 184f 063b
000002b0: 2391 543c 955c 9fbb 19ca c9bb e913 cdbb
000002c0: 23a3 4d3c 1fac edbb 4cef a5ba d835 2bbc
000002d0: 4627 5fbc 489a 0e3d caee b03b 5565 5fbc
000002e0: e0b6 2c3d 45cc 8f3c 54d2 9abc ca1a cd3c
000002f0: e529 243c 20f1 e4bc 5912 603c 66a4 203c
00000300: c362 20bd 0a84 af3c 1453 c6bb 1b5b e73c
00000310: 179a e43c 4920 b33c d78a 523c 2621 a9bb
00000320: abf5 563d cd17 433c 64b7 f93c ab3d 373d
00000330: 7700 acbb 6555 6f3b 2581 c1bb 75ad b53c
00000340: fe52 213d 1fec 353d 0068 8f3c cf33 9c3c
00000350: 2a64 19bd a967 093d 1c61 2abd 0688 13bd
00000360: 3cd6 95bc 9a9b b7bc 4179 153d 21b9 533d
00000370: fd86 303c 3ed7 313d 90a2 553c 5dce 0d3d
00000380: 4c27 bbbc f80e 5a3c cfaf 85bc 0a96 483d
00000390: 68da 2ebc e07d 203d e2e8 273d 5800 d33a
000003a0: ccdb 543c a5fb 17bd 3d3c 99bc d954 04bb
000003b0: 7814 493c a2c3 103d 4a87 853c 33ea 393d
000003c0: 18ea 24bd 0108 b53b a050 01bc 8d7d cabc
000003d0: cdad 5c3c f116 b03c 62dd 0cbd fd9b cdbb
000003e0: 4f42 bebb 9221 36bd d3de d83a cde6 10bc
000003f0: 0b80 1e3d f53f bfbc 788e c53c a76e 15bd

net.7.bias f4 [64]
-0.022230446 -0.012733082 -0.008649106 -0.010984679 0.0042666695 0.031299487 0.018688329 -0.004068248
0.005472338 0.04397744 0.026873514 -0.01835416 0.006737019 0.031620767 0.004856544 0.022378141
-0.029269215 -0.006322535 0.0066208397 -0.002675235 0.02908655 0.009745056 -0.041573606 0.01826375
-0.0101256315 -0.01602747 -0.042576812 -0.015087771 0.012800966 0.025740441 -0.017893914 0.007172558
0.028668959 -0.02771221 -0.007118271 0.010880911 0.025552014 -0.008685552 -0.031990517 -0.043555185
-0.025126262 -0.029617187 0.0012820524 0.011020562 -0.021830006 0.046395518 0.03008495 -0.03915573
-0.02108474 0.039366033 -0.0075881733 -0.03638779 0.03535288 -0.023909766 0.03699795 -0.04052865
0.005644834 0.04544022 -0.037022512 -0.024180936 -0.038484313 -0.009014367 -0.012883187 -0.002854713
00000000: a01c b6bc 6b9e 50bc fbb4 0dbc 15f9 33bc
00000010: 6bcf 8b3b e433 003d 4418 993c f04e 85bb
00000020: 4c51 b33b b021 343d d825 dc3c 775b 96bc
00000030: 36c2 dc3b c784 013d a523 9f3b 5d52 b73c
00000040: fec5 efbc 452d cfbb a1f3 d83b ff52 2fbb
00000050: eb46 ee3c baa9 1f3c 1649 2abd dc9d 953c
00000060: fae5 25bc 0a4c 83bc 0665 2ebd b332 77bc
00000070: 25bb 513c 9edd d23c 4296 92bc c707 eb3b
00000080: 2adb ea3c b704 e3bc 6340 e9bb d945 323c
00000090: 7552 d13c d84d 0ebc 7d08 03bd ec66 32bd
000000a0: 97d5 cdbc be9f f2bc 8a0a a83a 968f 343c
000000b0: d7d4 b2bc 3a09 3e3d b774 f63c c261 20bd
000000c0: e8b9 acbc 473e 213d 36a6 f8bb 5d0b 15bd
000000d0: 2ece 103d 6ade c3bc 2a8b 173d 5f01 26bd
000000e0: 4df8 b83b 861f 3a3d eba4 17bd 1917 c6bc
000000f0: baa1 1dbd ffb0 13bc 0114 53bc 2316 3bbb

net.10.weight f4 [128, 64, 3, 3]
-0.0020416072 -0.011090895 0.03708924 -0.041838814 -0.017694004 0.0136859175 0.0060022287 0.009708347
0.005762022 0.025380265 0.0063116634 -0.03760533 -0.024753498 0.03196858 0.037189156 0.017267905
0.019673707 -0.0023181762 0.0180114 0.0047420077 -0.026265781 -0.024975542 0.02822109 0.047448605
0.046307903 -0.0021436461 0.024706839 0.019099766 -0.028603878 -0.0109136505 -0.014542092 0.014211011
0.029291868 -0.017975627 0.02110931 0.031052751 0.0058118473 0.042311434 -0.00326819 0.0073471814
0.02200832 0.041252315 0.025944205 0.038871884 0.04788466 0.027684534 -0.03330882 0.012282129
0.04718667 -0.012084551 0.037870616 -0.030775892 0.04693555 0.022860095 0.030993933 -0.022843376
0.0066606095 0.030824235 0.0019562817 -0.01738927 0.0027693836 -0.0054064854 0.000983098 0.026174767
0.04019692 0.038825057 0.04094724 -0.005467865 -0.030757962 -0.026164131 -0.00049454824 0.0379954
0.027840303 -0.02799979 0.038757324 0.026824314 -0.02291047 0.033374984 0.024805075 -0.029781679
-0.025910115 0.0132317785 -0.031942602 -0.01573471 0.019825945 0.02255296 0.0152263185 0.023373444
-0.0014062916 0.035637632 0.03863316 0.030293044 0.03038082 -0.031955246 -0.015591264 0.01604974
0.016907142 -0.011627712 -0.030729558 0.031142715 0.007625176 0.03503127 0.013442472 -0.020816706
0.018904455 0.03268531 0.011192505 -0.019557526 -0.021595778 -0.008106227 -0.019939203 -0.011993822
-0.00097407436 0.0213287 0.017726034 0.03262224 -0.03298354 0.02712893 0.043740373 0.009598746
-0.028534727 -0.012142786 0.014145919 -0.009563771 0.04016929 -0.025832541 -0.036296163 0.015221253
-0.012008897 0.036629505 -0.03895827 0.009172006 -0.012728844 0.038446944 0.016124178 0.015798897
0.016901748 0.017188217 0.026843391 0.02460436 0.008588459 -0.028676167 -0.012224149 -0.0018753735
-0.02183495 -0.0022215743 -0.033993665 -0.0071222815 0.019539027 -0.020061048 0.027052382 0.007887
0.024568392 0.0014303998 -0.020896258 0.03859667 -0.00875847 -0.033339106 -0.03280457 0.035981398
0.010366308 -0.005079442 0.0010707751 0.027473915 -0.02908795 0.04631718 0.015096039 -0.030521402
-0.024783237 0.034780066 0.016527941 0.011162822 0.010364354 0.043130204 0.044629525 0.041428443
0.0076963953 -0.017032666 0.018268695 0.020654887 0.01812451 0.012394452 0.023183117 0.006665158
0.038009297 0.03157802 -0.028904807 -0.015108853 -0.010345617 0.002431839 -0.021191208 0.039536167
-0.034714036 0.032009207 -0.019733313 0.04554376 -0.0028821502 -0.017691799 0.04054943 0.03568184
0.0010633796 0.0152486935 -0.030964058 0.011639425 0.035125036 -0.030740654 0.031964734 -0.027281385
0.043331597 -0.010328716 -0.02019897 -0.0069532148 -0.033743102 0.019530239 -0.004848877 0.028398149
0.021961275 -0.006848335 -0.018155143 -0.023718258 0.021828782 -0.022763522 -0.0031286764 0.028969156
0.0075739897 0.041448526 -0.011608676 0.014515885 0.012357537 0.04166115 0.010840363 -0.024921019
-0.024430843 0.009908992 -0.017680224 -0.006810652 0.00033387635 0.002795719 -0.0005106741 -0.040784486
0.045218516 0.002830528 0.041553356 0.013313836 -0.036884286 0.0060142716 -0.028412774 -0.013302172
-0.03337825 -0.0075800214 -0.028830128 -0.0019675782 -0.023312634 0.035533536 -0.028800672 0.025647968
00000000: 7ccc 05bb 96b6 35bc e3ea 173d 2d5f 2bbd
00000010: 04f3 90bc e63a 603c 58ae c43b c20f 1f3c
00000020: 58cf bc3b 46ea cf3c 12d2 ce3b 0c08 1abd
00000030: d9c7 cabc 7cf1 023d a853 183d 6c75 8d3c
00000040: c12a a13c 8bec 17bb a58c 933c d862 9b3b
00000050: 562b d7bc 8299 ccbc ea2f e73c 7859 423d
00000060: 5bad 3d3d 6a7c 0cbb ff65 ca3c 1d77 9c3c
00000070: ae52 eabc 2bcf 32bc f441 6ebc 4dd5 683c
00000080: 80f5 ef3c 9f41 93bc 6fed ac3c 5762 fe3c
00000090: 4f71 be3b c14e 2d3d 212f 56bb a0c0 f03b
000000a0: cb4a b43c 30f8 283d f188 d43c 2038 1f3d
000000b0: b522 443d adca e23c d46e 08bd fc3a 493c
000000c0: cf46 413d 48fe 45bc 381e 1b3d b91d fcbc
000000d0: 7e3f 403d 1845 bb3c fde6 fd3c 0822 bbbc
000000e0: 3e41 da3b 1b83 fc3c f634 003b f173 8ebc
000000f0: 8c7e 353b e328 b1bb 4cdb 803a 776c d63c
00000100: 87a5 243d 0607 1f3d 4bb8 273d c72b b3bb
00000110: 1ff8 fbbc 2956 d6bc 92a4 01ba 11a1 1b3d
00000120: 5911 e43c d15f e5bc 00c0 1e3d aabe db3c
00000130: bdae bbbc 35b4 083d 0334 cb3c b5f8 f3bc
00000140: 7341 d4bc 1aca 583c 3fd6 02bd 14e6 80bc
00000150: 056a a23c fcc0 b83c cf77 793c aa79 bf3c
00000160: 5153 b8ba c4f8 113d ce3d 1e3d 1e29 f83c
00000170: 33e1 f83c 81e3 02bd 8072 7fbc bf7a 833c
00000180: d980 8a3c 2982 3ebc 8ebc fbbc 021f ff3c
00000190: 9ddc f93b f37c 0f3d d03d 5c3c cc87 aabc
000001a0: 84dd 9a3c 08e1 053d c560 373c 1b37 a0bc
000001b0: a1e9 b0bc fbcf 04bc 8a57 a3bc bc81 44bc
000001c0: 0659 7fba 87b9 ae3c 3036 913c e69e 053d
000001d0: c019 07bd 7d3d de3c 1b29 333d 0f44 1d3c
000001e0: a9c1 e9bc 89f2 46bc 49c4 673c 5db1 1cbc
000001f0: 8e88 243d c49e d3bc 49ab 14bd 9062 793c
00000200: f7c0 44bc d208 163d b592 1fbd 2e46 163c
00000210: a48c 50bc 8b7a 1d3d da16 843c b06c 813c
00000220: 8975 8a3c 4ece 8c3c ace6 db3c 158f c93c
00000230: 9cb6 0c3c 48ea eabc cc47 48bc 18cf f5ba
00000240: 36df b2bc d597 11bb f13c 0bbd 0762 e9bb
00000250: 4f10 a03c 1157 a4bc f59c dd3c 7a38 013c
00000260: a743 c93c 417c bb3a a12e abbc 8b17 1e3d
00000270: b07f 0fbc 968e 08bd 165e 06bd 3b61 133d
00000280: 72d7 293c 7371 a6bb 4059 8c3a fa10 e13c
00000290: da49 eebc 15b7 3d3d 6055 773c 0508 fabc
000002a0: 3706 cbbc 8b75 0e3d 9b65 873c 45e4 363c
000002b0: 40cf 293c 4ca9 303d 73cd 363d dfb0 293d
000002c0: 0b32 fc3b 1788 8bbc 3ba8 953c 7034 a93c
000002d0: da79 943c 1912 4b3c 85ea bd3c 6667 da3b
000002e0: a3af 1b3d f457 013d c6c9 ecbc 1f8b 77bc
000002f0: aa80 29bc 7d5f 1f3b 2f99 adbc adf0 213d
00000300: 4e30 0ebd 161c 033d c2a7 a1bc 188c 3a3d
00000310: 75e2 3cbb 64ee 90bc 2917 263d 1f27 123d
00000320: 1961 8b3a a8d5 793c 56a8 fdbc 49b3 3e3c
00000330: 45df 0f3d d3d3 fbbc 74ed 023d 367d dfbc
00000340: 797c 313d c639 29bc 4f78 a5bc cbd7 e3bb
00000350: 3536 0abd e1fd 9f3c 54e3 9ebb 3ca3 e83c
00000360: 22e8 b33c ff67 e0bb 18ba 94bc cb4c c2bc
00000370: 46d2 b23c 917a babc 7b0a 4dbb b950 ed3c
00000380: 3b2f f83b eec5 293d 5132 3ebc 09d4 6d3c
00000390: 4477 4a3c e2a4 2a3d c79b 313c 2a27 ccbc
000003a0: 3123 c8bc 5359 223c 1ed6 90bc e42b dfbb
000003b0: 200c af39 6238 373b c2de 05ba a20d 27bd
000003c0: 0d37 393d 6180 393b da33 2a3d 4722 5a3c
000003d0: fa13 17bd 5e13 c53b e8c1 e8bc 5af1 59bc
000003e0: a2b7 08bd d461 f8bb 292d ecbc 7cf2 00bb
000003f0: 23fa bebc 9d8b 113d 63ef ebbc b01b d23c

net.10.bias f4 [128]
0.009603114 -0.010450329 0.03707333 0.022333357 -0.03761799 -0.001996164 -0.0023558086 0.025197001
0.01589781 0.03463046 0.04282741 -0.0054173996 0.022401145 -0.0045770784 0.027040098 -0.018174164
0.023148067 0.04088372 0.018576406 -0.022307634 0.02463919 0.027128827 0.022808703 -0.03531043
0.012896254 -0.0437773 -0.031901654 -0.025225129 -0.008461711 0.0017998548 -0.03670559 0.02295321
0.034950048 0.038970806 -0.029228065 -0.032433834 -0.0032811717 0.0016083267 0.017186506 -0.009031067
-0.03756389 0.03403426 -0.009975544 -0.0011237793 -0.0010539729 0.032728422 -0.022011109 0.024908882
-0.002586685 0.02899341 0.035362024 0.0077271657 0.03691353 -0.0453132 0.021728685 0.019167496
-0.006274851 -0.011244413 0.015315488 0.0151029425 -0.0008792196 -0.021772379 0.035622284 0.04437716
-0.011696501 0.021426748 0.040483944 0.019314293 0.003942997 -0.0069554057 0.03354441 0.022378627
-0.038122505 -0.0056432113 -0.023895249 -0.01596526 0.0059984657 -0.03943443 -0.033221725 -0.0400166
0.045508705 0.045636807 -0.027109973 0.016141016 0.039057355 0.030773954 0.026605828 -0.026923051
0.009211255 -0.018248836 0.041070472 -0.040142145 -0.026666377 0.040621225 0.042710867 0.0339989
-0.016076751 -0.033646353 -0.027335636 -0.01882394 -0.027475033 0.026648467 0.020423232 -0.0006645777
-0.029622555 -0.020048944 0.014250528 -0.017747227 -0.03599557 0.013119718 0.03334879 0.017458744
0.006329961 0.033460464 -0.0342298 -0.013579965 -0.009027132 0.04502577 0.03276174 -0.014495311
-0.019939234 0.030006709 0.007855571 -0.00054004777 -0.013020319 -0.029340902 -0.041060947 0.004359168
00000000: 6156 1d3c db37 2bbc 34da 173d 72f4 b63c
00000010: 5215 1abd 13d2 02bb e963 1abb f169 ce3c
00000020: 203c 823c abd8 0d3d cb6b 2f3d 7184 b1bb
00000030: 9b82 b73c 51fb 95bb 3283 dd3c fce1 94bc
00000040: 04a1 bd3c b075 273d 8c2d 983c 80be b6bc
00000050: 20d8 c93c 463d de3c 51d9 ba3c aba1 10bd
00000060: cf4a 533c d34f 33bd 4fab 02bd eea4 cebc
00000070: fda2 0abc 1be9 eb3a 9a58 16bd 5f08 bc3c
00000080: c827 0f3d da9f 1f3d b26f efbc 57d9 04bd
00000090: ed08 57bb 7dce d23a b7ca 8c3c 0af7 13bc
000000a0: 98dc 19bd 8267 0b3d 7770 23bc c74b 93ba
000000b0: 7625 8aba 3d0e 063d a450 b4bc b60d cc3c
000000c0: 5f85 29bb 9683 ed3c c5d7 103d 2a34 fd3b
000000d0: a432 173d 569a 39bd 5b00 b23c 2705 9d3c
000000e0: 449d cdbb 7d3a 38bc d0ed 7a3c 5572 773c
000000f0: 6e7b 66ba fd5b b2bc ace8 113d d3c4 353d
00000100: aea2 3fbc 2687 af3c 7ed2 253d 0239 9e3c
00000110: 4234 813b 2cea e3bb dd65 093d 6253 b73c
00000120: 5826 1cbd b0ea b8bb f8bf c3bc 94c9 82bc
00000130: c78e c43b ff85 21bd 8113 08bd 72e8 23bd
00000140: 5667 3a3d a9ed 3a3d bc15 debc 2a3a 843c
00000150: 9bfa 1f3d a919 fc3c 77f4 d93c bb8d dcbc
00000160: ceea 163c 957e 95bc 8339 283d 176c 24bd
00000170: 7273 dabc 7162 263d 97f1 2e3d 6e42 0b3d
00000180: 64b3 83bc c2d0 09bd fcee dfbc aa34 9abc
00000190: 5213 e1bc e34d da3c 9f4e a73c 0e37 2eba
000001a0: 00ab f2bc af3d a4bc 0c7b 693c a262 91bc
000001b0: 1770 13bd 16f4 563c be98 083d a405 8f3c
000001c0: 906b cf3b d70d 093d 8c34 0cbd 807e 5ebc
000001d0: 89e6 13bc f16c 383d 2d31 063d be7d 6dbc
000001e0: 9b57 a3bc a1d0 f53c a7b4 003c fe91 0dba
000001f0: 2d53 55bc 555c f0bc 862f 28bd 5ad7 8e3b

head.weight f4 [31, 128]
0.041064225 -0.080787785 0.018512273 -0.06621546 -0.083479345 -0.036048878 0.047399744 0.025066659
-0.008269378 0.0721963 -0.0526651 -0.02372875 0.0059765107 0.040293384 -0.06433886 0.08537633
-0.028550614 0.020750333 -0.08474244 0.007875651 0.06300862 -0.0666078 0.019902062 -0.058733687
0.0248626 0.03305595 -0.055492368 -0.0625945 0.05680582 -0.020507442 0.07141108 0.08512417
0.028742978 0.106922284 -0.08629799 0.09442036 -0.04627572 -0.021432994 -0.06633165 0.08132406
-0.060666483 0.04315168 -0.045501024 -0.06933101 -0.005945233 -0.064756125 -0.040762473 0.01742717
-0.023033783 0.08778797 -0.051566895 -0.071677595 0.00613686 -0.082316324 0.019194929 0.10026234
0.027641598 -0.07934682 0.07682906 -0.046556145 -0.011264596 -0.055591166 0.064415306 -0.06003842
-0.025326882 -0.005161873 0.060016077 0.042804543 -0.060888782 0.052292995 0.04928064 0.03868802
-0.063571036 -0.011131231 0.07020737 0.012647746 -0.07869722 -0.050173454 0.09589478 0.016438091
-0.032064725 0.057358015 -0.004898765 -0.0039442605 -0.022078553 0.060083736 0.07978504 -0.055329654
-0.054269537 0.056152366 -0.012195482 0.06500718 -0.07466955 0.051842187 0.099253505 -0.004178322
-0.08883156 0.07046679 0.041223947 0.039579656 -0.036482677 0.018007107 0.06417189 0.09771635
-0.07855574 0.07302369 0.028740121 0.012473838 -0.0876816 0.015784793 0.051381923 -0.025400218
-0.041038886 0.11318099 0.09200458 0.060978282 0.080616966 0.07064176 0.0028529295 0.07845558
0.05774132 -0.026274558 0.010948656 -0.04401491 -0.00018542251 -0.039506733 0.018000294 0.046051472
-0.049407687 -0.012370296 0.004417704 -0.016351523 0.03335179 -0.017518282 0.076692365 -0.022138208
0.019506618 -0.011760046 -0.07338943 -0.06803874 -0.038557008 0.050051525 -0.051965687 -0.040442713
-0.08223982 -0.09265107 -0.0013696144 0.03999132 0.011926931 0.03961348 0.022976553 0.072590746
0.07713783 -0.04835387 0.003993428 0.06560957 0.08573377 0.06265876 -0.016336897 -0.080883086
0.071344525 0.09618907 0.089557804 -0.0929298 -0.06196292 -0.042061947 0.039391372 0.052105926
-0.045919176 -0.023818156 0.057951625 0.060224816 -0.0040115495 -0.001612344 0.06828678 0.067783445
-0.07602679 0.036237095 0.07620504 0.031582408 -0.016370839 0.053693708 -0.08190056 0.06818728
0.06282365 0.066902116 -0.022308134 -0.03742592 0.057790026 -0.03167402 -0.08206881 -0.005605565
-0.016625643 -0.057092246 0.053552132 -0.03744986 -0.057420295 -0.027736168 0.06016093 -0.02133521
0.060502626 0.007455498 0.032564722 0.06914978 -0.07465551 0.020006232 0.0017092508 0.02790215
0.0979174 -0.016638955 0.09265739 0.028806988 0.0679619 -0.07396546 -0.062894665 0.058160033
-0.04294056 0.057148013 -0.033654373 -0.04568977 -0.018457035 0.074625835 0.039182782 0.09114011
0.07499307 0.030348456 0.062581435 0.06625042 0.011561777 -0.041187532 -0.04075027 -0.022401769
-0.019919842 -0.0644673 -0.008176069 -0.016178165 0.0153982565 -0.05696276 -0.033080094 0.002663515
-0.076991335 0.05007826 -0.016052907 -0.10844825 -0.0076684738 -0.02981752 -0.0152856605 -0.029815927
0.0040104087 0.044436086 -0.038091455 -0.040088028 0.064914905 -0.02043031 0.021690886 0.024617758
00000000: f632 283d 1174 a5bd 0da7 973c f99b 87bd
00000010: 38f7 aabd fda7 13bd 3c26 423d 9858 cd3c
00000020: 497c 07bc a7db 933d 5cb7 57bd cc62 c2bc
00000030: 9bd6 c33b ad0a 253d 18c4 83bd c9d9 ae3d
00000040: fae2 e9bc 9afc a93c 728d adbd e008 013c
00000050: aa0a 813d ac69 88bd a609 a33c bc92 70bd
00000060: a7ac cb3c ad65 073d f74b 63bd 8c31 80bd
00000070: 38ad 683d 39ff a7bc f93f 923d 9555 ae3d
00000080: 6576 eb3c 12fa da3d 00bd b0bd 765f c13d
00000090: 9c8b 3dbd 3f94 afbc e3d8 87bd 3b8d a63d
000000a0: 6b7d 78bd d1bf 303d 485f 3abd 6bfd 8dbd
000000b0: 3bd0 c2bb dc9e 84bd 8df6 26bd 6dc3 8e3c
000000c0: 58b1 bcbc 2eca b33d cf37 53bd b4cb 92bd
000000d0: b717 c93b 7695 a8bd af3e 9d3c 5756 cd3d
000000e0: a270 e23c 9680 a2bd 8e58 9d3d a8b1 3ebd
000000f0: 248f 38bc 90b3 63bd 2cec 833d d9ea 75bd
00000100: 527a cfbc ee24 a9bb 6bd3 753d d153 2f3d
00000110: 8466 79bd 2e31 563d 7fda 493d 5477 1e3d
00000120: 8831 82bd c45f 36bc e2c8 8f3d 7e38 4f3c
00000130: 022c a1bd ae82 4dbd 7b64 c43d 2da9 863c
00000140: 4d56 03bd 3df0 6a3d d285 a0bb db3e 81bb
00000150: 15de b4bc 5d1a 763d 5766 a33d 59a1 62bd
00000160: bc49 5ebd 0600 663d 8fcf 47bc 7c22 853d
00000170: 59ec 98bd 7958 543d 6c45 cb3d 4eea 88bb
00000180: 52ed b5bd e450 903d 71da 283d 471e 223d
00000190: dc6e 15bd a483 933c 8d6c 833d 821f c83d
000001a0: d5e1 a0bd 728d 953d 6770 eb3c 125f 4c3c
000001b0: 6992 b3bd 1c4f 813c da75 523d 1e14 d0bc
000001c0: 6418 28bd 6fcb e73d e66c bc3d 5dc4 793d
000001d0: 821a a53d a1ac 903d 37f8 3a3b 52ad a03d
000001e0: 2a82 6c3d be3d d7bc fe61 333c fa48 34bd
000001f0: fa6d 42b9 d0d1 21bd 5a75 933c 78a0 3c3d
00000200: b75f 4abd c8ac 4abc 63c2 903b a1f3 85bc
00000210: e39b 083d 8082 8fbc e310 9d3d 305b b5bc
00000220: 58cc 9f3c 35ad 40bc 334d 96bd e557 8bbd
00000230: f4ed 1dbd d402 4d3d f9d9 54bd 42a7 25bd
00000240: 5a6d a8bd d8bf bdbd a284 b3ba f0cd 233d
00000250: 2d69 433c bf41 223d 5339 bc3c 75aa 943d
00000260: 70fa 9d3d b50e 46bd 4ddb 823b 4f5e 863d
00000270: 3095 af3d 3c53 803d f5d4 85bc 08a6 a5bd
00000280: 141d 923d c6fe c43d 156a b73d fb51 bebd
00000290: d5cc 7dbd 2649 2cbd d958 213d 066d 553d
000002a0: bf15 3cbd 4b1e c3bc af5e 6d3d 4cae 763d
000002b0: 5173 83bb 4955 d3ba f0d9 8b3d 0cd2 8a3d
000002c0: efb3 9bbd 596d 143d 6311 9c3d 8e5c 013d
000002d0: 231c 86bc efed 5b3d 7bbb a7bd c6a5 8b3d
000002e0: b0a9 803d fa03 893d 8cbf b6bc ec4b 19bd
000002f0: 3cb5 6c3d 9ebc 01bd b113 a8bd e3ae b7bb
00000300: 8032 88bc 8fd9 69bd 7b59 5b3d 0665 19bd
00000310: 8b31 6bbd f636 e3bc 4f6b 763d 2ec7 aebc
00000320: 9ad1 773d 404d f43b 9662 053d 669e 8d3d
00000330: fde4 98bd 1ce4 a33c f108 e03a 0d93 e43c
00000340: eb88 c83d 6b4e 88bc 28c3 bd3d a2fc eb3c
00000350: 9c2f 8b3d 347b 97bd ebce 80bd 3739 6e3d
00000360: 71e2 2fbd 0914 6a3d 2bd9 09bd 3225 3bbd
00000370: 3533 97bc 6ed5 983d 207e 203d aaa7 ba3d
00000380: f795 993d 539d f83c b22a 803d 4dae 873d
00000390: 9c6d 3d3c 42b4 28bd c1e9 26bd ea83 b7bc
000003a0: f02e a3bc 6f07 84bd ebf4 05bc 1288 84bc
000003b0: f848 7c3c c851 69bd fe7e 07bd 5e8e 2e3b
000003c0: a2ad 9dbd dd1e 4d3d 6381 83bc 1e1a debd
000003d0: d247 fbbb df43 f4bc b570 7abc 8840 f4bc
000003e0: bf69 833b 9d02 363d c905 1cbd 5833 24bd
000003f0: 1bf2 843d 775d a7bc 16b1 b13c 2eab c93c

head.bias f4 [31]
-0.01811102 -0.033999752 -0.037513267 -0.02211719 -0.08690966 0.026149558 0.049107414 -0.048346866
-0.070883505 0.04764319 -0.06268602 0.08505121 0.04668843 -0.08634231 0.022422444 -0.07579028
-0.030796824 -0.061194804 0.008472721 -0.026146064 -0.091140404 -0.076868445 -0.0064639426 0.0446685
-0.05322767 -0.039488643 -0.021269126 -0.013862568 -0.047353733 -0.022698047 -0.030274047
00000000: 905d 94bc 5343 0bbd 83a7 19bd 1c2f b5bc
00000010: b1fd b1bd 9937 d63c db24 493d 5d07 46bd
00000020: 5f2b 91bd 8125 433d 8761 80bd 542f ae3d
00000030: 5e3c 3f3d 3dd4 b0bd 46af b73c ef37 9bbd
00000040: 9f49 fcbc 67a7 7abd 2bd1 0a3c 4530 d6bc
00000050: d2a7 babd 346d 9dbd 7bcf d3bb 51f6 363d
00000060: 4205 5abd d8be 21bd 973c aebc d31f 63bc
00000070: fdf5 41bd 41f1 b9bc 4701 f8bc
